…
2024-12-11 16:38:27,926 INFO: Number of val images in Synthetic ValSet: 1
2024-12-11 16:38:27,926 INFO: Dataset [DualDn_Dataset] - SyntheticValSet 
                        with noise level: 0.02, alpha: 0.5 is built.
2024-12-11 16:38:27,926 INFO: Use None prefetch dataloader: num_prefetch_queue = 1
2024-12-11 16:38:27,926 INFO: Number of val images in Synthetic ValSet: 1
2024-12-11 16:38:28,266 INFO: Network [DualDn] is created.
2024-12-11 16:38:28,497 INFO: Network: DualDn, with parameters: 53,048,212
2024-12-11 16:38:28,497 INFO: DualDn(
  (up): PixelShuffle(upscale_factor=2)
  (down): PixelUnshuffle(downscale_factor=2)
  (conv_in1): Conv2d(8, 64, kernel_size=(1, 1), stride=(1, 1), bias=False)
  (conv_out1): Conv2d(64, 4, kernel_size=(1, 1), stride=(1, 1), bias=False)
  (conv_in2): Conv2d(6, 64, kernel_size=(1, 1), stride=(1, 1), bias=False)
  (conv_out2): Conv2d(64, 3, kernel_size=(1, 1), stride=(1, 1), bias=False)
  (nm_fuse1): Concat(
    (conv_out): Conv2d(8, 64, kernel_size=(1, 1), stride=(1, 1), bias=False)
  )
  (nm_fuse2): Concat(
    (conv_out): Conv2d(6, 64, kernel_size=(1, 1), stride=(1, 1), bias=False)
  )
  (backbone1): Restormer(
    (encoder_level1): Sequential(
      (0): TransformerBlock(
        (norm1): LayerNorm(
          (body): BiasFree_LayerNorm()
        )
        (attn): Attention(
          (qkv): Conv2d(64, 192, kernel_size=(1, 1), stride=(1, 1), bias=False)
          (qkv_dwconv): Conv2d(192, 192, kernel_size=(3, 3), stride=(1, 1), padding=(1, 1), groups=192, bias=False)
          (project_out): Conv2d(64, 64, kernel_size=(1, 1), stride=(1, 1), bias=False)
        )
        (norm2): LayerNorm(
          (body): BiasFree_LayerNorm()
        )
        (ffn): FeedForward(
          (project_in): Conv2d(64, 340, kernel_size=(1, 1), stride=(1, 1), bias=False)
          (dwconv): Conv2d(340, 340, kernel_size=(3, 3), stride=(1, 1), padding=(1, 1), groups=340, bias=False)
          (project_out): Conv2d(170, 64, kernel_size=(1, 1), stride=(1, 1), bias=False)
        )
      )
      (1): TransformerBlock(
        (norm1): LayerNorm(
          (body): BiasFree_LayerNorm()
        )
        (attn): Attention(
          (qkv): Conv2d(64, 192, kernel_size=(1, 1), stride=(1, 1), bias=False)
          (qkv_dwconv): Conv2d(192, 192, kernel_size=(3, 3), stride=(1, 1), padding=(1, 1), groups=192, bias=False)
          (project_out): Conv2d(64, 64, kernel_size=(1, 1), stride=(1, 1), bias=False)
        )
        (norm2): LayerNorm(
          (body): BiasFree_LayerNorm()
        )
        (ffn): FeedForward(
          (project_in): Conv2d(64, 340, kernel_size=(1, 1), stride=(1, 1), bias=False)
          (dwconv): Conv2d(340, 340, kernel_size=(3, 3), stride=(1, 1), padding=(1, 1), groups=340, bias=False)
          (project_out): Conv2d(170, 64, kernel_size=(1, 1), stride=(1, 1), bias=False)
        )
      )
    )
    (down1_2): Downsample(
      (body): Sequential(
        (0): Conv2d(64, 32, kernel_size=(3, 3), stride=(1, 1), padding=(1, 1), bias=False)
        (1): PixelUnshuffle(downscale_factor=2)
      )
    )
    (encoder_level2): Sequential(
      (0): TransformerBlock(
        (norm1): LayerNorm(
          (body): BiasFree_LayerNorm()
        )
        (attn): Attention(
          (qkv): Conv2d(128, 384, kernel_size=(1, 1), stride=(1, 1), bias=False)
          (qkv_dwconv): Conv2d(384, 384, kernel_size=(3, 3), stride=(1, 1), padding=(1, 1), groups=384, bias=False)
          (project_out): Conv2d(128, 128, kernel_size=(1, 1), stride=(1, 1), bias=False)
        )
        (norm2): LayerNorm(
          (body): BiasFree_LayerNorm()
        )
        (ffn): FeedForward(
          (project_in): Conv2d(128, 680, kernel_size=(1, 1), stride=(1, 1), bias=False)
          (dwconv): Conv2d(680, 680, kernel_size=(3, 3), stride=(1, 1), padding=(1, 1), groups=680, bias=False)
          (project_out): Conv2d(340, 128, kernel_size=(1, 1), stride=(1, 1), bias=False)
        )
      )
      (1): TransformerBlock(
        (norm1): LayerNorm(
          (body): BiasFree_LayerNorm()
        )
        (attn): Attention(
          (qkv): Conv2d(128, 384, kernel_size=(1, 1), stride=(1, 1), bias=False)
          (qkv_dwconv): Conv2d(384, 384, kernel_size=(3, 3), stride=(1, 1), padding=(1, 1), groups=384, bias=False)
          (project_out): Conv2d(128, 128, kernel_size=(1, 1), stride=(1, 1), bias=False)
        )
        (norm2): LayerNorm(
          (body): BiasFree_LayerNorm()
        )
        (ffn): FeedForward(
          (project_in): Conv2d(128, 680, kernel_size=(1, 1), stride=(1, 1), bias=False)
          (dwconv): Conv2d(680, 680, kernel_size=(3, 3), stride=(1, 1), padding=(1, 1), groups=680, bias=False)
          (project_out): Conv2d(340, 128, kernel_size=(1, 1), stride=(1, 1), bias=False)
        )
      )
      (2): TransformerBlock(
        (norm1): LayerNorm(
          (body): BiasFree_LayerNorm()
        )
        (attn): Attention(
          (qkv): Conv2d(128, 384, kernel_size=(1, 1), stride=(1, 1), bias=False)
          (qkv_dwconv): Conv2d(384, 384, kernel_size=(3, 3), stride=(1, 1), padding=(1, 1), groups=384, bias=False)
          (project_out): Conv2d(128, 128, kernel_size=(1, 1), stride=(1, 1), bias=False)
        )
        (norm2): LayerNorm(
          (body): BiasFree_LayerNorm()
        )
        (ffn): FeedForward(
          (project_in): Conv2d(128, 680, kernel_size=(1, 1), stride=(1, 1), bias=False)
          (dwconv): Conv2d(680, 680, kernel_size=(3, 3), stride=(1, 1), padding=(1, 1), groups=680, bias=False)
          (project_out): Conv2d(340, 128, kernel_size=(1, 1), stride=(1, 1), bias=False)
        )
      )
    )
    (down2_3): Downsample(
      (body): Sequential(
        (0): Conv2d(128, 64, kernel_size=(3, 3), stride=(1, 1), padding=(1, 1), bias=False)
        (1): PixelUnshuffle(downscale_factor=2)
      )
    )
    (encoder_level3): Sequential(
      (0): TransformerBlock(
        (norm1): LayerNorm(
          (body): BiasFree_LayerNorm()
        )
        (attn): Attention(
          (qkv): Conv2d(256, 768, kernel_size=(1, 1), stride=(1, 1), bias=False)
          (qkv_dwconv): Conv2d(768, 768, kernel_size=(3, 3), stride=(1, 1), padding=(1, 1), groups=768, bias=False)
          (project_out): Conv2d(256, 256, kernel_size=(1, 1), stride=(1, 1), bias=False)
        )
        (norm2): LayerNorm(
          (body): BiasFree_LayerNorm()
        )
        (ffn): FeedForward(
          (project_in): Conv2d(256, 1360, kernel_size=(1, 1), stride=(1, 1), bias=False)
          (dwconv): Conv2d(1360, 1360, kernel_size=(3, 3), stride=(1, 1), padding=(1, 1), groups=1360, bias=False)
          (project_out): Conv2d(680, 256, kernel_size=(1, 1), stride=(1, 1), bias=False)
        )
      )
      (1): TransformerBlock(
        (norm1): LayerNorm(
          (body): BiasFree_LayerNorm()
        )
        (attn): Attention(
          (qkv): Conv2d(256, 768, kernel_size=(1, 1), stride=(1, 1), bias=False)
          (qkv_dwconv): Conv2d(768, 768, kernel_size=(3, 3), stride=(1, 1), padding=(1, 1), groups=768, bias=False)
          (project_out): Conv2d(256, 256, kernel_size=(1, 1), stride=(1, 1), bias=False)
        )
        (norm2): LayerNorm(
          (body): BiasFree_LayerNorm()
        )
        (ffn): FeedForward(
          (project_in): Conv2d(256, 1360, kernel_size=(1, 1), stride=(1, 1), bias=False)
          (dwconv): Conv2d(1360, 1360, kernel_size=(3, 3), stride=(1, 1), padding=(1, 1), groups=1360, bias=False)
          (project_out): Conv2d(680, 256, kernel_size=(1, 1), stride=(1, 1), bias=False)
        )
      )
      (2): TransformerBlock(
        (norm1): LayerNorm(
          (body): BiasFree_LayerNorm()
        )
        (attn): Attention(
          (qkv): Conv2d(256, 768, kernel_size=(1, 1), stride=(1, 1), bias=False)
          (qkv_dwconv): Conv2d(768, 768, kernel_size=(3, 3), stride=(1, 1), padding=(1, 1), groups=768, bias=False)
          (project_out): Conv2d(256, 256, kernel_size=(1, 1), stride=(1, 1), bias=False)
        )
        (norm2): LayerNorm(
          (body): BiasFree_LayerNorm()
        )
        (ffn): FeedForward(
          (project_in): Conv2d(256, 1360, kernel_size=(1, 1), stride=(1, 1), bias=False)
          (dwconv): Conv2d(1360, 1360, kernel_size=(3, 3), stride=(1, 1), padding=(1, 1), groups=1360, bias=False)
          (project_out): Conv2d(680, 256, kernel_size=(1, 1), stride=(1, 1), bias=False)
        )
      )
    )
    (down3_4): Downsample(
      (body): Sequential(
        (0): Conv2d(256, 128, kernel_size=(3, 3), stride=(1, 1), padding=(1, 1), bias=False)
        (1): PixelUnshuffle(downscale_factor=2)
      )
    )
    (latent): Sequential(
      (0): TransformerBlock(
        (norm1): LayerNorm(
          (body): BiasFree_LayerNorm()
        )
        (attn): Attention(
          (qkv): Conv2d(512, 1536, kernel_size=(1, 1), stride=(1, 1), bias=False)
          (qkv_dwconv): Conv2d(1536, 1536, kernel_size=(3, 3), stride=(1, 1), padding=(1, 1), groups=1536, bias=False)
          (project_out): Conv2d(512, 512, kernel_size=(1, 1), stride=(1, 1), bias=False)
        )
        (norm2): LayerNorm(
          (body): BiasFree_LayerNorm()
        )
        (ffn): FeedForward(
          (project_in): Conv2d(512, 2722, kernel_size=(1, 1), stride=(1, 1), bias=False)
          (dwconv): Conv2d(2722, 2722, kernel_size=(3, 3), stride=(1, 1), padding=(1, 1), groups=2722, bias=False)
          (project_out): Conv2d(1361, 512, kernel_size=(1, 1), stride=(1, 1), bias=False)
        )
      )
      (1): TransformerBlock(
        (norm1): LayerNorm(
          (body): BiasFree_LayerNorm()
        )
        (attn): Attention(
          (qkv): Conv2d(512, 1536, kernel_size=(1, 1), stride=(1, 1), bias=False)
          (qkv_dwconv): Conv2d(1536, 1536, kernel_size=(3, 3), stride=(1, 1), padding=(1, 1), groups=1536, bias=False)
          (project_out): Conv2d(512, 512, kernel_size=(1, 1), stride=(1, 1), bias=False)
        )
        (norm2): LayerNorm(
          (body): BiasFree_LayerNorm()
        )
        (ffn): FeedForward(
          (project_in): Conv2d(512, 2722, kernel_size=(1, 1), stride=(1, 1), bias=False)
          (dwconv): Conv2d(2722, 2722, kernel_size=(3, 3), stride=(1, 1), padding=(1, 1), groups=2722, bias=False)
          (project_out): Conv2d(1361, 512, kernel_size=(1, 1), stride=(1, 1), bias=False)
        )
      )
      (2): TransformerBlock(
        (norm1): LayerNorm(
          (body): BiasFree_LayerNorm()
        )
        (attn): Attention(
          (qkv): Conv2d(512, 1536, kernel_size=(1, 1), stride=(1, 1), bias=False)
          (qkv_dwconv): Conv2d(1536, 1536, kernel_size=(3, 3), stride=(1, 1), padding=(1, 1), groups=1536, bias=False)
          (project_out): Conv2d(512, 512, kernel_size=(1, 1), stride=(1, 1), bias=False)
        )
        (norm2): LayerNorm(
          (body): BiasFree_LayerNorm()
        )
        (ffn): FeedForward(
          (project_in): Conv2d(512, 2722, kernel_size=(1, 1), stride=(1, 1), bias=False)
          (dwconv): Conv2d(2722, 2722, kernel_size=(3, 3), stride=(1, 1), padding=(1, 1), groups=2722, bias=False)
          (project_out): Conv2d(1361, 512, kernel_size=(1, 1), stride=(1, 1), bias=False)
        )
      )
      (3): TransformerBlock(
        (norm1): LayerNorm(
          (body): BiasFree_LayerNorm()
        )
        (attn): Attention(
          (qkv): Conv2d(512, 1536, kernel_size=(1, 1), stride=(1, 1), bias=False)
          (qkv_dwconv): Conv2d(1536, 1536, kernel_size=(3, 3), stride=(1, 1), padding=(1, 1), groups=1536, bias=False)
          (project_out): Conv2d(512, 512, kernel_size=(1, 1), stride=(1, 1), bias=False)
        )
        (norm2): LayerNorm(
          (body): BiasFree_LayerNorm()
        )
        (ffn): FeedForward(
          (project_in): Conv2d(512, 2722, kernel_size=(1, 1), stride=(1, 1), bias=False)
          (dwconv): Conv2d(2722, 2722, kernel_size=(3, 3), stride=(1, 1), padding=(1, 1), groups=2722, bias=False)
          (project_out): Conv2d(1361, 512, kernel_size=(1, 1), stride=(1, 1), bias=False)
        )
      )
    )
    (up4_3): Upsample(
      (body): Sequential(
        (0): Conv2d(512, 1024, kernel_size=(3, 3), stride=(1, 1), padding=(1, 1), bias=False)
        (1): PixelShuffle(upscale_factor=2)
      )
    )
    (reduce_chan_level3): Conv2d(512, 256, kernel_size=(1, 1), stride=(1, 1), bias=False)
    (decoder_level3): Sequential(
      (0): TransformerBlock(
        (norm1): LayerNorm(
          (body): BiasFree_LayerNorm()
        )
        (attn): Attention(
          (qkv): Conv2d(256, 768, kernel_size=(1, 1), stride=(1, 1), bias=False)
          (qkv_dwconv): Conv2d(768, 768, kernel_size=(3, 3), stride=(1, 1), padding=(1, 1), groups=768, bias=False)
          (project_out): Conv2d(256, 256, kernel_size=(1, 1), stride=(1, 1), bias=False)
        )
        (norm2): LayerNorm(
          (body): BiasFree_LayerNorm()
        )
        (ffn): FeedForward(
          (project_in): Conv2d(256, 1360, kernel_size=(1, 1), stride=(1, 1), bias=False)
          (dwconv): Conv2d(1360, 1360, kernel_size=(3, 3), stride=(1, 1), padding=(1, 1), groups=1360, bias=False)
          (project_out): Conv2d(680, 256, kernel_size=(1, 1), stride=(1, 1), bias=False)
        )
      )
      (1): TransformerBlock(
        (norm1): LayerNorm(
          (body): BiasFree_LayerNorm()
        )
        (attn): Attention(
          (qkv): Conv2d(256, 768, kernel_size=(1, 1), stride=(1, 1), bias=False)
          (qkv_dwconv): Conv2d(768, 768, kernel_size=(3, 3), stride=(1, 1), padding=(1, 1), groups=768, bias=False)
          (project_out): Conv2d(256, 256, kernel_size=(1, 1), stride=(1, 1), bias=False)
        )
        (norm2): LayerNorm(
          (body): BiasFree_LayerNorm()
        )
        (ffn): FeedForward(
          (project_in): Conv2d(256, 1360, kernel_size=(1, 1), stride=(1, 1), bias=False)
          (dwconv): Conv2d(1360, 1360, kernel_size=(3, 3), stride=(1, 1), padding=(1, 1), groups=1360, bias=False)
          (project_out): Conv2d(680, 256, kernel_size=(1, 1), stride=(1, 1), bias=False)
        )
      )
      (2): TransformerBlock(
        (norm1): LayerNorm(
          (body): BiasFree_LayerNorm()
        )
        (attn): Attention(
          (qkv): Conv2d(256, 768, kernel_size=(1, 1), stride=(1, 1), bias=False)
          (qkv_dwconv): Conv2d(768, 768, kernel_size=(3, 3), stride=(1, 1), padding=(1, 1), groups=768, bias=False)
          (project_out): Conv2d(256, 256, kernel_size=(1, 1), stride=(1, 1), bias=False)
        )
        (norm2): LayerNorm(
          (body): BiasFree_LayerNorm()
        )
        (ffn): FeedForward(
          (project_in): Conv2d(256, 1360, kernel_size=(1, 1), stride=(1, 1), bias=False)
          (dwconv): Conv2d(1360, 1360, kernel_size=(3, 3), stride=(1, 1), padding=(1, 1), groups=1360, bias=False)
          (project_out): Conv2d(680, 256, kernel_size=(1, 1), stride=(1, 1), bias=False)
        )
      )
    )
    (up3_2): Upsample(
      (body): Sequential(
        (0): Conv2d(256, 512, kernel_size=(3, 3), stride=(1, 1), padding=(1, 1), bias=False)
        (1): PixelShuffle(upscale_factor=2)
      )
    )
    (reduce_chan_level2): Conv2d(256, 128, kernel_size=(1, 1), stride=(1, 1), bias=False)
    (decoder_level2): Sequential(
      (0): TransformerBlock(
        (norm1): LayerNorm(
          (body): BiasFree_LayerNorm()
        )
        (attn): Attention(
          (qkv): Conv2d(128, 384, kernel_size=(1, 1), stride=(1, 1), bias=False)
          (qkv_dwconv): Conv2d(384, 384, kernel_size=(3, 3), stride=(1, 1), padding=(1, 1), groups=384, bias=False)
          (project_out): Conv2d(128, 128, kernel_size=(1, 1), stride=(1, 1), bias=False)
        )
        (norm2): LayerNorm(
          (body): BiasFree_LayerNorm()
        )
        (ffn): FeedForward(
          (project_in): Conv2d(128, 680, kernel_size=(1, 1), stride=(1, 1), bias=False)
          (dwconv): Conv2d(680, 680, kernel_size=(3, 3), stride=(1, 1), padding=(1, 1), groups=680, bias=False)
          (project_out): Conv2d(340, 128, kernel_size=(1, 1), stride=(1, 1), bias=False)
        )
      )
      (1): TransformerBlock(
        (norm1): LayerNorm(
          (body): BiasFree_LayerNorm()
        )
        (attn): Attention(
          (qkv): Conv2d(128, 384, kernel_size=(1, 1), stride=(1, 1), bias=False)
          (qkv_dwconv): Conv2d(384, 384, kernel_size=(3, 3), stride=(1, 1), padding=(1, 1), groups=384, bias=False)
          (project_out): Conv2d(128, 128, kernel_size=(1, 1), stride=(1, 1), bias=False)
        )
        (norm2): LayerNorm(
          (body): BiasFree_LayerNorm()
        )
        (ffn): FeedForward(
          (project_in): Conv2d(128, 680, kernel_size=(1, 1), stride=(1, 1), bias=False)
          (dwconv): Conv2d(680, 680, kernel_size=(3, 3), stride=(1, 1), padding=(1, 1), groups=680, bias=False)
          (project_out): Conv2d(340, 128, kernel_size=(1, 1), stride=(1, 1), bias=False)
        )
      )
      (2): TransformerBlock(
        (norm1): LayerNorm(
          (body): BiasFree_LayerNorm()
        )
        (attn): Attention(
          (qkv): Conv2d(128, 384, kernel_size=(1, 1), stride=(1, 1), bias=False)
          (qkv_dwconv): Conv2d(384, 384, kernel_size=(3, 3), stride=(1, 1), padding=(1, 1), groups=384, bias=False)
          (project_out): Conv2d(128, 128, kernel_size=(1, 1), stride=(1, 1), bias=False)
        )
        (norm2): LayerNorm(
          (body): BiasFree_LayerNorm()
        )
        (ffn): FeedForward(
          (project_in): Conv2d(128, 680, kernel_size=(1, 1), stride=(1, 1), bias=False)
          (dwconv): Conv2d(680, 680, kernel_size=(3, 3), stride=(1, 1), padding=(1, 1), groups=680, bias=False)
          (project_out): Conv2d(340, 128, kernel_size=(1, 1), stride=(1, 1), bias=False)
        )
      )
    )
    (up2_1): Upsample(
      (body): Sequential(
        (0): Conv2d(128, 256, kernel_size=(3, 3), stride=(1, 1), padding=(1, 1), bias=False)
        (1): PixelShuffle(upscale_factor=2)
      )
    )
    (decoder_level1): Sequential(
      (0): TransformerBlock(
        (norm1): LayerNorm(
          (body): BiasFree_LayerNorm()
        )
        (attn): Attention(
          (qkv): Conv2d(128, 384, kernel_size=(1, 1), stride=(1, 1), bias=False)
          (qkv_dwconv): Conv2d(384, 384, kernel_size=(3, 3), stride=(1, 1), padding=(1, 1), groups=384, bias=False)
          (project_out): Conv2d(128, 128, kernel_size=(1, 1), stride=(1, 1), bias=False)
        )
        (norm2): LayerNorm(
          (body): BiasFree_LayerNorm()
        )
        (ffn): FeedForward(
          (project_in): Conv2d(128, 680, kernel_size=(1, 1), stride=(1, 1), bias=False)
          (dwconv): Conv2d(680, 680, kernel_size=(3, 3), stride=(1, 1), padding=(1, 1), groups=680, bias=False)
          (project_out): Conv2d(340, 128, kernel_size=(1, 1), stride=(1, 1), bias=False)
        )
      )
      (1): TransformerBlock(
        (norm1): LayerNorm(
          (body): BiasFree_LayerNorm()
        )
        (attn): Attention(
          (qkv): Conv2d(128, 384, kernel_size=(1, 1), stride=(1, 1), bias=False)
          (qkv_dwconv): Conv2d(384, 384, kernel_size=(3, 3), stride=(1, 1), padding=(1, 1), groups=384, bias=False)
          (project_out): Conv2d(128, 128, kernel_size=(1, 1), stride=(1, 1), bias=False)
        )
        (norm2): LayerNorm(
          (body): BiasFree_LayerNorm()
        )
        (ffn): FeedForward(
          (project_in): Conv2d(128, 680, kernel_size=(1, 1), stride=(1, 1), bias=False)
          (dwconv): Conv2d(680, 680, kernel_size=(3, 3), stride=(1, 1), padding=(1, 1), groups=680, bias=False)
          (project_out): Conv2d(340, 128, kernel_size=(1, 1), stride=(1, 1), bias=False)
        )
      )
    )
    (refinement): Sequential(
      (0): TransformerBlock(
        (norm1): LayerNorm(
          (body): BiasFree_LayerNorm()
        )
        (attn): Attention(
          (qkv): Conv2d(128, 384, kernel_size=(1, 1), stride=(1, 1), bias=False)
          (qkv_dwconv): Conv2d(384, 384, kernel_size=(3, 3), stride=(1, 1), padding=(1, 1), groups=384, bias=False)
          (project_out): Conv2d(128, 128, kernel_size=(1, 1), stride=(1, 1), bias=False)
        )
        (norm2): LayerNorm(
          (body): BiasFree_LayerNorm()
        )
        (ffn): FeedForward(
          (project_in): Conv2d(128, 680, kernel_size=(1, 1), stride=(1, 1), bias=False)
          (dwconv): Conv2d(680, 680, kernel_size=(3, 3), stride=(1, 1), padding=(1, 1), groups=680, bias=False)
          (project_out): Conv2d(340, 128, kernel_size=(1, 1), stride=(1, 1), bias=False)
        )
      )
      (1): TransformerBlock(
        (norm1): LayerNorm(
          (body): BiasFree_LayerNorm()
        )
        (attn): Attention(
          (qkv): Conv2d(128, 384, kernel_size=(1, 1), stride=(1, 1), bias=False)
          (qkv_dwconv): Conv2d(384, 384, kernel_size=(3, 3), stride=(1, 1), padding=(1, 1), groups=384, bias=False)
          (project_out): Conv2d(128, 128, kernel_size=(1, 1), stride=(1, 1), bias=False)
        )
        (norm2): LayerNorm(
          (body): BiasFree_LayerNorm()
        )
        (ffn): FeedForward(
          (project_in): Conv2d(128, 680, kernel_size=(1, 1), stride=(1, 1), bias=False)
          (dwconv): Conv2d(680, 680, kernel_size=(3, 3), stride=(1, 1), padding=(1, 1), groups=680, bias=False)
          (project_out): Conv2d(340, 128, kernel_size=(1, 1), stride=(1, 1), bias=False)
        )
      )
    )
    (output): Conv2d(128, 64, kernel_size=(3, 3), stride=(1, 1), padding=(1, 1), bias=False)
  )
  (backbone2): Restormer(
    (encoder_level1): Sequential(
      (0): TransformerBlock(
        (norm1): LayerNorm(
          (body): BiasFree_LayerNorm()
        )
        (attn): Attention(
          (qkv): Conv2d(64, 192, kernel_size=(1, 1), stride=(1, 1), bias=False)
          (qkv_dwconv): Conv2d(192, 192, kernel_size=(3, 3), stride=(1, 1), padding=(1, 1), groups=192, bias=False)
          (project_out): Conv2d(64, 64, kernel_size=(1, 1), stride=(1, 1), bias=False)
        )
        (norm2): LayerNorm(
          (body): BiasFree_LayerNorm()
        )
        (ffn): FeedForward(
          (project_in): Conv2d(64, 340, kernel_size=(1, 1), stride=(1, 1), bias=False)
          (dwconv): Conv2d(340, 340, kernel_size=(3, 3), stride=(1, 1), padding=(1, 1), groups=340, bias=False)
          (project_out): Conv2d(170, 64, kernel_size=(1, 1), stride=(1, 1), bias=False)
        )
      )
      (1): TransformerBlock(
        (norm1): LayerNorm(
          (body): BiasFree_LayerNorm()
        )
        (attn): Attention(
          (qkv): Conv2d(64, 192, kernel_size=(1, 1), stride=(1, 1), bias=False)
          (qkv_dwconv): Conv2d(192, 192, kernel_size=(3, 3), stride=(1, 1), padding=(1, 1), groups=192, bias=False)
          (project_out): Conv2d(64, 64, kernel_size=(1, 1), stride=(1, 1), bias=False)
        )
        (norm2): LayerNorm(
          (body): BiasFree_LayerNorm()
        )
        (ffn): FeedForward(
          (project_in): Conv2d(64, 340, kernel_size=(1, 1), stride=(1, 1), bias=False)
          (dwconv): Conv2d(340, 340, kernel_size=(3, 3), stride=(1, 1), padding=(1, 1), groups=340, bias=False)
          (project_out): Conv2d(170, 64, kernel_size=(1, 1), stride=(1, 1), bias=False)
        )
      )
    )
    (down1_2): Downsample(
      (body): Sequential(
        (0): Conv2d(64, 32, kernel_size=(3, 3), stride=(1, 1), padding=(1, 1), bias=False)
        (1): PixelUnshuffle(downscale_factor=2)
      )
    )
    (encoder_level2): Sequential(
      (0): TransformerBlock(
        (norm1): LayerNorm(
          (body): BiasFree_LayerNorm()
        )
        (attn): Attention(
          (qkv): Conv2d(128, 384, kernel_size=(1, 1), stride=(1, 1), bias=False)
          (qkv_dwconv): Conv2d(384, 384, kernel_size=(3, 3), stride=(1, 1), padding=(1, 1), groups=384, bias=False)
          (project_out): Conv2d(128, 128, kernel_size=(1, 1), stride=(1, 1), bias=False)
        )
        (norm2): LayerNorm(
          (body): BiasFree_LayerNorm()
        )
        (ffn): FeedForward(
          (project_in): Conv2d(128, 680, kernel_size=(1, 1), stride=(1, 1), bias=False)
          (dwconv): Conv2d(680, 680, kernel_size=(3, 3), stride=(1, 1), padding=(1, 1), groups=680, bias=False)
          (project_out): Conv2d(340, 128, kernel_size=(1, 1), stride=(1, 1), bias=False)
        )
      )
      (1): TransformerBlock(
        (norm1): LayerNorm(
          (body): BiasFree_LayerNorm()
        )
        (attn): Attention(
          (qkv): Conv2d(128, 384, kernel_size=(1, 1), stride=(1, 1), bias=False)
          (qkv_dwconv): Conv2d(384, 384, kernel_size=(3, 3), stride=(1, 1), padding=(1, 1), groups=384, bias=False)
          (project_out): Conv2d(128, 128, kernel_size=(1, 1), stride=(1, 1), bias=False)
        )
        (norm2): LayerNorm(
          (body): BiasFree_LayerNorm()
        )
        (ffn): FeedForward(
          (project_in): Conv2d(128, 680, kernel_size=(1, 1), stride=(1, 1), bias=False)
          (dwconv): Conv2d(680, 680, kernel_size=(3, 3), stride=(1, 1), padding=(1, 1), groups=680, bias=False)
          (project_out): Conv2d(340, 128, kernel_size=(1, 1), stride=(1, 1), bias=False)
        )
      )
      (2): TransformerBlock(
        (norm1): LayerNorm(
          (body): BiasFree_LayerNorm()
        )
        (attn): Attention(
          (qkv): Conv2d(128, 384, kernel_size=(1, 1), stride=(1, 1), bias=False)
          (qkv_dwconv): Conv2d(384, 384, kernel_size=(3, 3), stride=(1, 1), padding=(1, 1), groups=384, bias=False)
          (project_out): Conv2d(128, 128, kernel_size=(1, 1), stride=(1, 1), bias=False)
        )
        (norm2): LayerNorm(
          (body): BiasFree_LayerNorm()
        )
        (ffn): FeedForward(
          (project_in): Conv2d(128, 680, kernel_size=(1, 1), stride=(1, 1), bias=False)
          (dwconv): Conv2d(680, 680, kernel_size=(3, 3), stride=(1, 1), padding=(1, 1), groups=680, bias=False)
          (project_out): Conv2d(340, 128, kernel_size=(1, 1), stride=(1, 1), bias=False)
        )
      )
    )
    (down2_3): Downsample(
      (body): Sequential(
        (0): Conv2d(128, 64, kernel_size=(3, 3), stride=(1, 1), padding=(1, 1), bias=False)
        (1): PixelUnshuffle(downscale_factor=2)
      )
    )
    (encoder_level3): Sequential(
      (0): TransformerBlock(
        (norm1): LayerNorm(
          (body): BiasFree_LayerNorm()
        )
        (attn): Attention(
          (qkv): Conv2d(256, 768, kernel_size=(1, 1), stride=(1, 1), bias=False)
          (qkv_dwconv): Conv2d(768, 768, kernel_size=(3, 3), stride=(1, 1), padding=(1, 1), groups=768, bias=False)
          (project_out): Conv2d(256, 256, kernel_size=(1, 1), stride=(1, 1), bias=False)
        )
        (norm2): LayerNorm(
          (body): BiasFree_LayerNorm()
        )
        (ffn): FeedForward(
          (project_in): Conv2d(256, 1360, kernel_size=(1, 1), stride=(1, 1), bias=False)
          (dwconv): Conv2d(1360, 1360, kernel_size=(3, 3), stride=(1, 1), padding=(1, 1), groups=1360, bias=False)
          (project_out): Conv2d(680, 256, kernel_size=(1, 1), stride=(1, 1), bias=False)
        )
      )
      (1): TransformerBlock(
        (norm1): LayerNorm(
          (body): BiasFree_LayerNorm()
        )
        (attn): Attention(
          (qkv): Conv2d(256, 768, kernel_size=(1, 1), stride=(1, 1), bias=False)
          (qkv_dwconv): Conv2d(768, 768, kernel_size=(3, 3), stride=(1, 1), padding=(1, 1), groups=768, bias=False)
          (project_out): Conv2d(256, 256, kernel_size=(1, 1), stride=(1, 1), bias=False)
        )
        (norm2): LayerNorm(
          (body): BiasFree_LayerNorm()
        )
        (ffn): FeedForward(
          (project_in): Conv2d(256, 1360, kernel_size=(1, 1), stride=(1, 1), bias=False)
          (dwconv): Conv2d(1360, 1360, kernel_size=(3, 3), stride=(1, 1), padding=(1, 1), groups=1360, bias=False)
          (project_out): Conv2d(680, 256, kernel_size=(1, 1), stride=(1, 1), bias=False)
        )
      )
      (2): TransformerBlock(
        (norm1): LayerNorm(
          (body): BiasFree_LayerNorm()
        )
        (attn): Attention(
          (qkv): Conv2d(256, 768, kernel_size=(1, 1), stride=(1, 1), bias=False)
          (qkv_dwconv): Conv2d(768, 768, kernel_size=(3, 3), stride=(1, 1), padding=(1, 1), groups=768, bias=False)
          (project_out): Conv2d(256, 256, kernel_size=(1, 1), stride=(1, 1), bias=False)
        )
        (norm2): LayerNorm(
          (body): BiasFree_LayerNorm()
        )
        (ffn): FeedForward(
          (project_in): Conv2d(256, 1360, kernel_size=(1, 1), stride=(1, 1), bias=False)
          (dwconv): Conv2d(1360, 1360, kernel_size=(3, 3), stride=(1, 1), padding=(1, 1), groups=1360, bias=False)
          (project_out): Conv2d(680, 256, kernel_size=(1, 1), stride=(1, 1), bias=False)
        )
      )
    )
    (down3_4): Downsample(
      (body): Sequential(
        (0): Conv2d(256, 128, kernel_size=(3, 3), stride=(1, 1), padding=(1, 1), bias=False)
        (1): PixelUnshuffle(downscale_factor=2)
      )
    )
    (latent): Sequential(
      (0): TransformerBlock(
        (norm1): LayerNorm(
          (body): BiasFree_LayerNorm()
        )
        (attn): Attention(
          (qkv): Conv2d(512, 1536, kernel_size=(1, 1), stride=(1, 1), bias=False)
          (qkv_dwconv): Conv2d(1536, 1536, kernel_size=(3, 3), stride=(1, 1), padding=(1, 1), groups=1536, bias=False)
          (project_out): Conv2d(512, 512, kernel_size=(1, 1), stride=(1, 1), bias=False)
        )
        (norm2): LayerNorm(
          (body): BiasFree_LayerNorm()
        )
        (ffn): FeedForward(
          (project_in): Conv2d(512, 2722, kernel_size=(1, 1), stride=(1, 1), bias=False)
          (dwconv): Conv2d(2722, 2722, kernel_size=(3, 3), stride=(1, 1), padding=(1, 1), groups=2722, bias=False)
          (project_out): Conv2d(1361, 512, kernel_size=(1, 1), stride=(1, 1), bias=False)
        )
      )
      (1): TransformerBlock(
        (norm1): LayerNorm(
          (body): BiasFree_LayerNorm()
        )
        (attn): Attention(
          (qkv): Conv2d(512, 1536, kernel_size=(1, 1), stride=(1, 1), bias=False)
          (qkv_dwconv): Conv2d(1536, 1536, kernel_size=(3, 3), stride=(1, 1), padding=(1, 1), groups=1536, bias=False)
          (project_out): Conv2d(512, 512, kernel_size=(1, 1), stride=(1, 1), bias=False)
        )
        (norm2): LayerNorm(
          (body): BiasFree_LayerNorm()
        )
        (ffn): FeedForward(
          (project_in): Conv2d(512, 2722, kernel_size=(1, 1), stride=(1, 1), bias=False)
          (dwconv): Conv2d(2722, 2722, kernel_size=(3, 3), stride=(1, 1), padding=(1, 1), groups=2722, bias=False)
          (project_out): Conv2d(1361, 512, kernel_size=(1, 1), stride=(1, 1), bias=False)
        )
      )
      (2): TransformerBlock(
        (norm1): LayerNorm(
          (body): BiasFree_LayerNorm()
        )
        (attn): Attention(
          (qkv): Conv2d(512, 1536, kernel_size=(1, 1), stride=(1, 1), bias=False)
          (qkv_dwconv): Conv2d(1536, 1536, kernel_size=(3, 3), stride=(1, 1), padding=(1, 1), groups=1536, bias=False)
          (project_out): Conv2d(512, 512, kernel_size=(1, 1), stride=(1, 1), bias=False)
        )
        (norm2): LayerNorm(
          (body): BiasFree_LayerNorm()
        )
        (ffn): FeedForward(
          (project_in): Conv2d(512, 2722, kernel_size=(1, 1), stride=(1, 1), bias=False)
          (dwconv): Conv2d(2722, 2722, kernel_size=(3, 3), stride=(1, 1), padding=(1, 1), groups=2722, bias=False)
          (project_out): Conv2d(1361, 512, kernel_size=(1, 1), stride=(1, 1), bias=False)
        )
      )
      (3): TransformerBlock(
        (norm1): LayerNorm(
          (body): BiasFree_LayerNorm()
        )
        (attn): Attention(
          (qkv): Conv2d(512, 1536, kernel_size=(1, 1), stride=(1, 1), bias=False)
          (qkv_dwconv): Conv2d(1536, 1536, kernel_size=(3, 3), stride=(1, 1), padding=(1, 1), groups=1536, bias=False)
          (project_out): Conv2d(512, 512, kernel_size=(1, 1), stride=(1, 1), bias=False)
        )
        (norm2): LayerNorm(
          (body): BiasFree_LayerNorm()
        )
        (ffn): FeedForward(
          (project_in): Conv2d(512, 2722, kernel_size=(1, 1), stride=(1, 1), bias=False)
          (dwconv): Conv2d(2722, 2722, kernel_size=(3, 3), stride=(1, 1), padding=(1, 1), groups=2722, bias=False)
          (project_out): Conv2d(1361, 512, kernel_size=(1, 1), stride=(1, 1), bias=False)
        )
      )
    )
    (up4_3): Upsample(
      (body): Sequential(
        (0): Conv2d(512, 1024, kernel_size=(3, 3), stride=(1, 1), padding=(1, 1), bias=False)
        (1): PixelShuffle(upscale_factor=2)
      )
    )
    (reduce_chan_level3): Conv2d(512, 256, kernel_size=(1, 1), stride=(1, 1), bias=False)
    (decoder_level3): Sequential(
      (0): TransformerBlock(
        (norm1): LayerNorm(
          (body): BiasFree_LayerNorm()
        )
        (attn): Attention(
          (qkv): Conv2d(256, 768, kernel_size=(1, 1), stride=(1, 1), bias=False)
          (qkv_dwconv): Conv2d(768, 768, kernel_size=(3, 3), stride=(1, 1), padding=(1, 1), groups=768, bias=False)
          (project_out): Conv2d(256, 256, kernel_size=(1, 1), stride=(1, 1), bias=False)
        )
        (norm2): LayerNorm(
          (body): BiasFree_LayerNorm()
        )
        (ffn): FeedForward(
          (project_in): Conv2d(256, 1360, kernel_size=(1, 1), stride=(1, 1), bias=False)
          (dwconv): Conv2d(1360, 1360, kernel_size=(3, 3), stride=(1, 1), padding=(1, 1), groups=1360, bias=False)
          (project_out): Conv2d(680, 256, kernel_size=(1, 1), stride=(1, 1), bias=False)
        )
      )
      (1): TransformerBlock(
        (norm1): LayerNorm(
          (body): BiasFree_LayerNorm()
        )
        (attn): Attention(
          (qkv): Conv2d(256, 768, kernel_size=(1, 1), stride=(1, 1), bias=False)
          (qkv_dwconv): Conv2d(768, 768, kernel_size=(3, 3), stride=(1, 1), padding=(1, 1), groups=768, bias=False)
          (project_out): Conv2d(256, 256, kernel_size=(1, 1), stride=(1, 1), bias=False)
        )
        (norm2): LayerNorm(
          (body): BiasFree_LayerNorm()
        )
        (ffn): FeedForward(
          (project_in): Conv2d(256, 1360, kernel_size=(1, 1), stride=(1, 1), bias=False)
          (dwconv): Conv2d(1360, 1360, kernel_size=(3, 3), stride=(1, 1), padding=(1, 1), groups=1360, bias=False)
          (project_out): Conv2d(680, 256, kernel_size=(1, 1), stride=(1, 1), bias=False)
        )
      )
      (2): TransformerBlock(
        (norm1): LayerNorm(
          (body): BiasFree_LayerNorm()
        )
        (attn): Attention(
          (qkv): Conv2d(256, 768, kernel_size=(1, 1), stride=(1, 1), bias=False)
          (qkv_dwconv): Conv2d(768, 768, kernel_size=(3, 3), stride=(1, 1), padding=(1, 1), groups=768, bias=False)
          (project_out): Conv2d(256, 256, kernel_size=(1, 1), stride=(1, 1), bias=False)
        )
        (norm2): LayerNorm(
          (body): BiasFree_LayerNorm()
        )
        (ffn): FeedForward(
          (project_in): Conv2d(256, 1360, kernel_size=(1, 1), stride=(1, 1), bias=False)
          (dwconv): Conv2d(1360, 1360, kernel_size=(3, 3), stride=(1, 1), padding=(1, 1), groups=1360, bias=False)
          (project_out): Conv2d(680, 256, kernel_size=(1, 1), stride=(1, 1), bias=False)
        )
      )
    )
    (up3_2): Upsample(
      (body): Sequential(
        (0): Conv2d(256, 512, kernel_size=(3, 3), stride=(1, 1), padding=(1, 1), bias=False)
        (1): PixelShuffle(upscale_factor=2)
      )
    )
    (reduce_chan_level2): Conv2d(256, 128, kernel_size=(1, 1), stride=(1, 1), bias=False)
    (decoder_level2): Sequential(
      (0): TransformerBlock(
        (norm1): LayerNorm(
          (body): BiasFree_LayerNorm()
        )
        (attn): Attention(
          (qkv): Conv2d(128, 384, kernel_size=(1, 1), stride=(1, 1), bias=False)
          (qkv_dwconv): Conv2d(384, 384, kernel_size=(3, 3), stride=(1, 1), padding=(1, 1), groups=384, bias=False)
          (project_out): Conv2d(128, 128, kernel_size=(1, 1), stride=(1, 1), bias=False)
        )
        (norm2): LayerNorm(
          (body): BiasFree_LayerNorm()
        )
        (ffn): FeedForward(
          (project_in): Conv2d(128, 680, kernel_size=(1, 1), stride=(1, 1), bias=False)
          (dwconv): Conv2d(680, 680, kernel_size=(3, 3), stride=(1, 1), padding=(1, 1), groups=680, bias=False)
          (project_out): Conv2d(340, 128, kernel_size=(1, 1), stride=(1, 1), bias=False)
        )
      )
      (1): TransformerBlock(
        (norm1): LayerNorm(
          (body): BiasFree_LayerNorm()
        )
        (attn): Attention(
          (qkv): Conv2d(128, 384, kernel_size=(1, 1), stride=(1, 1), bias=False)
          (qkv_dwconv): Conv2d(384, 384, kernel_size=(3, 3), stride=(1, 1), padding=(1, 1), groups=384, bias=False)
          (project_out): Conv2d(128, 128, kernel_size=(1, 1), stride=(1, 1), bias=False)
        )
        (norm2): LayerNorm(
          (body): BiasFree_LayerNorm()
        )
        (ffn): FeedForward(
          (project_in): Conv2d(128, 680, kernel_size=(1, 1), stride=(1, 1), bias=False)
          (dwconv): Conv2d(680, 680, kernel_size=(3, 3), stride=(1, 1), padding=(1, 1), groups=680, bias=False)
          (project_out): Conv2d(340, 128, kernel_size=(1, 1), stride=(1, 1), bias=False)
        )
      )
      (2): TransformerBlock(
        (norm1): LayerNorm(
          (body): BiasFree_LayerNorm()
        )
        (attn): Attention(
          (qkv): Conv2d(128, 384, kernel_size=(1, 1), stride=(1, 1), bias=False)
          (qkv_dwconv): Conv2d(384, 384, kernel_size=(3, 3), stride=(1, 1), padding=(1, 1), groups=384, bias=False)
          (project_out): Conv2d(128, 128, kernel_size=(1, 1), stride=(1, 1), bias=False)
        )
        (norm2): LayerNorm(
          (body): BiasFree_LayerNorm()
        )
        (ffn): FeedForward(
          (project_in): Conv2d(128, 680, kernel_size=(1, 1), stride=(1, 1), bias=False)
          (dwconv): Conv2d(680, 680, kernel_size=(3, 3), stride=(1, 1), padding=(1, 1), groups=680, bias=False)
          (project_out): Conv2d(340, 128, kernel_size=(1, 1), stride=(1, 1), bias=False)
        )
      )
    )
    (up2_1): Upsample(
      (body): Sequential(
        (0): Conv2d(128, 256, kernel_size=(3, 3), stride=(1, 1), padding=(1, 1), bias=False)
        (1): PixelShuffle(upscale_factor=2)
      )
    )
    (decoder_level1): Sequential(
      (0): TransformerBlock(
        (norm1): LayerNorm(
          (body): BiasFree_LayerNorm()
        )
        (attn): Attention(
          (qkv): Conv2d(128, 384, kernel_size=(1, 1), stride=(1, 1), bias=False)
          (qkv_dwconv): Conv2d(384, 384, kernel_size=(3, 3), stride=(1, 1), padding=(1, 1), groups=384, bias=False)
          (project_out): Conv2d(128, 128, kernel_size=(1, 1), stride=(1, 1), bias=False)
        )
        (norm2): LayerNorm(
          (body): BiasFree_LayerNorm()
        )
        (ffn): FeedForward(
          (project_in): Conv2d(128, 680, kernel_size=(1, 1), stride=(1, 1), bias=False)
          (dwconv): Conv2d(680, 680, kernel_size=(3, 3), stride=(1, 1), padding=(1, 1), groups=680, bias=False)
          (project_out): Conv2d(340, 128, kernel_size=(1, 1), stride=(1, 1), bias=False)
        )
      )
      (1): TransformerBlock(
        (norm1): LayerNorm(
          (body): BiasFree_LayerNorm()
        )
        (attn): Attention(
          (qkv): Conv2d(128, 384, kernel_size=(1, 1), stride=(1, 1), bias=False)
          (qkv_dwconv): Conv2d(384, 384, kernel_size=(3, 3), stride=(1, 1), padding=(1, 1), groups=384, bias=False)
          (project_out): Conv2d(128, 128, kernel_size=(1, 1), stride=(1, 1), bias=False)
        )
        (norm2): LayerNorm(
          (body): BiasFree_LayerNorm()
        )
        (ffn): FeedForward(
          (project_in): Conv2d(128, 680, kernel_size=(1, 1), stride=(1, 1), bias=False)
          (dwconv): Conv2d(680, 680, kernel_size=(3, 3), stride=(1, 1), padding=(1, 1), groups=680, bias=False)
          (project_out): Conv2d(340, 128, kernel_size=(1, 1), stride=(1, 1), bias=False)
        )
      )
    )
    (refinement): Sequential(
      (0): TransformerBlock(
        (norm1): LayerNorm(
          (body): BiasFree_LayerNorm()
        )
        (attn): Attention(
          (qkv): Conv2d(128, 384, kernel_size=(1, 1), stride=(1, 1), bias=False)
          (qkv_dwconv): Conv2d(384, 384, kernel_size=(3, 3), stride=(1, 1), padding=(1, 1), groups=384, bias=False)
          (project_out): Conv2d(128, 128, kernel_size=(1, 1), stride=(1, 1), bias=False)
        )
        (norm2): LayerNorm(
          (body): BiasFree_LayerNorm()
        )
        (ffn): FeedForward(
          (project_in): Conv2d(128, 680, kernel_size=(1, 1), stride=(1, 1), bias=False)
          (dwconv): Conv2d(680, 680, kernel_size=(3, 3), stride=(1, 1), padding=(1, 1), groups=680, bias=False)
          (project_out): Conv2d(340, 128, kernel_size=(1, 1), stride=(1, 1), bias=False)
        )
      )
      (1): TransformerBlock(
        (norm1): LayerNorm(
          (body): BiasFree_LayerNorm()
        )
        (attn): Attention(
          (qkv): Conv2d(128, 384, kernel_size=(1, 1), stride=(1, 1), bias=False)
          (qkv_dwconv): Conv2d(384, 384, kernel_size=(3, 3), stride=(1, 1), padding=(1, 1), groups=384, bias=False)
          (project_out): Conv2d(128, 128, kernel_size=(1, 1), stride=(1, 1), bias=False)
        )
        (norm2): LayerNorm(
          (body): BiasFree_LayerNorm()
        )
        (ffn): FeedForward(
          (project_in): Conv2d(128, 680, kernel_size=(1, 1), stride=(1, 1), bias=False)
          (dwconv): Conv2d(680, 680, kernel_size=(3, 3), stride=(1, 1), padding=(1, 1), groups=680, bias=False)
          (project_out): Conv2d(340, 128, kernel_size=(1, 1), stride=(1, 1), bias=False)
        )
      )
    )
    (output): Conv2d(128, 64, kernel_size=(3, 3), stride=(1, 1), padding=(1, 1), bias=False)
  )
)
2024-12-11 16:38:28,497 INFO: Loading model for G [./pretrained_model/DualDn_Big.pth] ...
2024-12-11 16:38:28,578 INFO: Loading: params_ema does not exist, use params.
2024-12-11 16:38:28,578 INFO: Loading DualDn model from ./pretrained_model/DualDn_Big.pth, with param key: [params].
2024-12-11 16:38:28,670 INFO: Model [DualDn_Model] is created.
…
